fuk/policy.pth (torch, 44591 bytes, 12 tensors)

log_std f4 [2]
00000000: fa45 a53b e495 96bb
0.0050437422 -0.004595505

mlp_extractor.policy_net.0.weight f4 [64, 10]
00000000: 6323 9d3d 6cd9 653e 684b 9cbd 5781 80bd
00000010: 27a2 5cbd f39d 6cbe 3ad4 213e 6fed 8b3d
00000020: ac27 60be 4e08 aa3e f187 b5bc 9940 20be
00000030: 543e 9c3d 4774 a5bd f82c 29be a9bd 8a3e
00000040: 15b4 3b3e 1853 40be 549e babd f692 7c3d
00000050: 892b 15bd bb8e 213e 0e51 973e b308 8a3e
00000060: 3abc 483e bc05 053e 58d4 1dbd 382f abbe
00000070: 2cef 093e dbcb f6bb 1ae7 ebbd 96dd 24be
00000080: 2c09 bdbe b041 1fbd 2778 92ba 5c3c 5d3c
00000090: 10ea d4bd 93f2 4dbc f350 8fbd 6a4c a23d
000000a0: f53f 94bd 322c 10be 963a 96bb a8cd b73d
000000b0: 5f35 943e ccf5 e5bd 3d33 b2be 6e9d a43d
000000c0: 2357 e93c 1818 9abd 16f2 f43d 0fa0 b63d
000000d0: d1a0 8b3e aaa9 d53d ebdd b53c 8faf c5be
000000e0: 5df9 94bc 94cb 5bbd 6538 c9bd dcd9 b03c
000000f0: a6e5 a93d bd28 8abe 2d43 833d c698 85be
00000100: 2bca df3c 5b1e 9b3e c8d7 543e 6a5c a2be
00000110: e0be 1d3e c50d f1bd c167 23be a6df c53d
00000120: 020d 17bb 4eea c43d ece0 723e bf09 cebd
00000130: ad5a eb3d 4e25 2fbe b37c 283e 75b0 61be
00000140: 8b68 42bd a92c 9c3c f0d2 d539 4253 733e
00000150: 7780 e3bd 2f6d f1bd f0eb a83c 64e2 913e
00000160: 514e b63c 3606 1bbe 45ae 69bd 79f7 e5bd
00000170: 4e65 193e 5842 243e b496 f9bc 236a 84be
00000180: de17 0e3d cfa0 1b3e 2361 8a3d 4ac5 073e
00000190: 320b 95be a7b6 dd3d 5fcf 09be 8491 83bc
000001a0: 7264 b5bd dd86 a43c 3b52 463e 8bd0 0b3e
000001b0: b051 213e 9074 2d3e 3b47 e63d 1939 a43e
000001c0: db87 793d 037b 443e bc06 a0bd 1c47 d93b
000001d0: bc62 393e 4228 583d 2a58 863d 23ed ebbd
000001e0: cc18 bf3d cb1c ca3d b1ec c9be 54de 81bd
000001f0: c2a2 d93d d3cf 173e 1ba8 36bd 551e 0b3e
00000200: a036 463d 7ebb 07be e0ff c6bd 6951 b73c
00000210: 6147 16be d46e efbd 43c9 603d 39f2 773d
00000220: ee24 cf3d 2aaf 0fbd 8325 31be 98ac 273e
00000230: d2a4 49be 1eab 1fbe cfdf 5e3d 253d da3d
00000240: 78e2 dcbe 9f8b cd3c 7e3b a43c 5867 183e
00000250: 0768 fbbd c37f 92be 2fa8 ab3d ad91 12be
00000260: c26f 653e 4b59 89be 1e6d a33e fa78 843e
00000270: f123 86be 2ae7 813d 5214 5bbe 702d 283e
00000280: 0245 83be f1af 333e 443e 243e 0017 e9bd
00000290: 59f1 c93d 4b2b e8bc c721 77be 0c8c 0c3d
000002a0: 885e 9abe b3c9 0d3e c7b0 db3d 7864 52bd
000002b0: e153 2abe 93f0 d13d 84ae 883e 6011 37bc
000002c0: 8e11 fc3d 4ed4 eebd 3fb4 08bf cbf7 ba3d
000002d0: 57d5 21be 865b d63d 75e4 86be 919a 0c3e
000002e0: 34fc 7f3e 81e6 563e b9b1 223d 8cf2 80be
000002f0: db02 d2bd d7e0 c1be e70e 9abe a38f cf3d
00000300: b01d 32be 3621 a03e cb61 cc3d 73d1 6b3e
00000310: bb47 20bd 4ffa 963d af20 4ebc e4e9 653e
00000320: fdb2 febd f4a3 ac3e 9d73 193d a181 ac3d
00000330: 324e 463e e270 ccbc 9d3d 223e eab6 643e
00000340: d5f1 01be 5fa5 99bc ac42 fa3c 26a6 7bbd
00000350: b0f8 20be b13e d63c 3f27 93be 0de3 183e
00000360: 1201 32bc a97c 79be 4042 a7be 625c 2bbe
00000370: 39e6 843d c6b9 703c 9bf8 3cbd 44b7 d23c
00000380: fec1 12bd 18a1 9fbb cda7 b1bd f510 50be
00000390: fc10 293e a127 ec3c 31b2 163e 53be 8e3e
000003a0: 2d40 d1bd 9d1f c2be df66 74bc 4ce0 5dbe
000003b0: 197b afbd 4681 fa3d aff3 c03d 1d4b 6abd
000003c0: 3788 8abe 512d 773c 98c5 8d3d ac6d 963d
000003d0: 7936 34be 55d9 7a3d a833 16be a94d f3bd
000003e0: 9b9a 073e 79ad b3bd 245e 893c 2204 9b3e
000003f0: d50c 72be 11c8 9ebd b122 02be cedb cd3e
0.07672765 0.22446221 -0.0763157 -0.062746696 -0.053865578 -0.23107128 0.15803614 0.06832396
-0.21890134 0.3320946 -0.022159548 -0.15649642 0.07629076 -0.08078819 -0.1652106 0.27097824
0.18330415 -0.18781698 -0.0911223 0.06166359 -0.03641847 0.15777104 0.29554027 0.26959762
0.19603053 0.12990469 -0.038532585 -0.33434463 0.13470143 -0.0075316257 -0.115186885 -0.16100153
-0.3692106 -0.038881004 -0.0011174724 0.01350316 -0.103962064 -0.012570041 -0.06997862 0.07924731
-0.07238761 -0.14079359 -0.0045846207 0.08974773 0.2894697 -0.11228523 -0.34804717 0.0803784
0.028483933 -0.07524127 0.11960237 0.089172475 0.2727113 0.104327515 0.022200545 -0.38610503
-0.018185312 -0.053660944 -0.098252095 0.021588258 0.08295755 -0.26984206 0.06409297 -0.2609312
0.02731808 0.30296597 0.20785439 -0.3171113 0.15404844 -0.117702045 -0.15957548 0.09661798
-0.0023048525 0.096150026 0.23718613 -0.10060453 0.114919044 -0.17104074 0.16453819 -0.2203997
-0.04746298 0.019064264 0.00040783687 0.23762229 -0.11108487 -0.11788403 0.020620316 0.28493035
0.022254141 -0.15139088 -0.057050962 -0.11228842 0.14980051 0.16040933 -0.030467369 -0.25862226
0.03469073 0.15198062 0.067568086 0.13258854 -0.29110104 0.10825854 -0.13458012 -0.016060598
-0.08857049 0.02008384 0.19367306 0.13653772 0.15753818 0.16938996 0.11244055 0.32074812
0.060920577 0.1918755 -0.078137845 0.0066307914 0.1810407 0.052772768 0.06559785 -0.115198396
0.093309015 0.09868773 -0.39438394 -0.06341234 0.10626747 0.14825372 -0.04459391 0.1358579
0.04839194 -0.13255116 -0.09716773 0.022377687 -0.14675666 -0.11691061 0.054879438 0.060533736
0.10114466 -0.03507916 -0.17299466 0.16374433 -0.1969178 -0.1559262 0.05441266 0.10656194
-0.43141532 0.02509099 0.0200479 0.14883173 -0.12275701 -0.286131 0.08381688 -0.14313383
0.22405913 -0.26825938 0.31919187 0.25873548 -0.26199296 0.06342919 -0.2139447 0.16423583
-0.25638586 0.17547585 0.16039377 -0.1138134 0.098604865 -0.028340956 -0.24133979 0.034313247
-0.30150247 0.13846473 0.10727077 -0.051365346 -0.1663356 0.10250964 0.26695645 -0.011173576
0.12308036 -0.11661588 -0.53400034 0.09129294 -0.15804039 0.104666755 -0.26346174 0.13730837
0.24998552 0.20986368 0.03972027 -0.2518505 -0.10254451 -0.37866852 -0.30089495 0.101348184
-0.17394137 0.31275338 0.0997959 0.23029117 -0.039130908 0.07371961 -0.012581035 0.22452503
-0.12436483 0.33718836 0.037463773 0.08423162 0.19365767 -0.02495617 0.15843816 0.22335401
-0.12689908 -0.018755613 0.03054937 -0.06143775 -0.15719867 0.02615294 -0.2874088 0.14930363
-0.010864513 -0.2436396 -0.32667732 -0.1673446 0.06489224 0.014692729 -0.046135526 0.025722153
-0.035829537 -0.004871499 -0.086745836 -0.20318969 0.16510385 0.02882749 0.14716412 0.2787958
-0.10217319 -0.37914744 -0.0149171045 -0.21667594 -0.08568401 0.12231688 0.09421479 -0.05720054
-0.2705705 0.015086488 0.06922454 0.07345137 -0.17598905 0.06124242 -0.14668143 -0.11880047
0.13242571 -0.08773322 0.016768523 0.3027659 -0.23637708 -0.077530034 -0.12708546 0.4020676

mlp_extractor.policy_net.0.bias f4 [64]
00000000: 31c0 11b4 e067 aa34 e7c7 4735 9de6 27b4
00000010: 79f8 3b36 73be 1ab5 0000 0000 680a aab4
00000020: 6b3b aa34 be5d e8b5 9469 5bb5 0f2b d6b6
00000030: 66d8 5cb2 4c79 90b5 50d6 4836 be6f 2230
00000040: 2b8b 79b4 a541 43b4 71c1 2035 33d0 7bb2
00000050: 9aa9 d434 f8b3 6ab3 a806 2db7 9550 a9b4
00000060: 4131 f9b4 d2a7 7b34 107e 32b2 0000 0000
00000070: d49e 632b 5258 5db5 5451 2f37 1eff 7436
00000080: 09a9 e5b2 ee12 a134 2285 6ab5 18de 02b3
00000090: 0000 0000 ee1a 6c35 0f17 4635 5fd0 33b4
000000a0: 6fec 6236 1b6e 0f37 5aab e8b0 2f7c 5c35
000000b0: 0000 0000 6a9e 2d35 3d3e 81b4 cc74 1536
000000c0: dea5 bd35 16d1 d937 eb5b f633 82b5 a9b5
000000d0: 0210 49b4 6ba8 23b5 1a48 a234 73a4 4434
000000e0: d15b 3236 073d 20b6 dccf 0836 383f dcb4
000000f0: 1974 10b2 3e5e 56b5 9d20 4236 0666 e835
-1.3574096e-07 3.1740547e-07 7.4424173e-07 -1.5636984e-07 2.8009802e-06 -5.764661e-07 0.0 -3.167254e-07
3.17082e-07 -1.731263e-06 -8.1737494e-07 -6.3827097e-06 -1.2854889e-08 -1.0764138e-06 2.9927069e-06 5.909405e-10
-2.3240561e-07 -1.8184672e-07 5.988614e-07 -1.4657462e-08 3.9611479e-07 -5.464605e-08 -1.0313153e-05 -3.1537334e-07
-4.64157e-07 2.343725e-07 -1.0389627e-08 0.0 8.086702e-13 -8.245744e-07 1.04497485e-05 3.650733e-06
-2.6735977e-08 3.000236e-07 -8.7365527e-07 -3.0469977e-08 0.0 8.795604e-07 7.37943e-07 -1.6746479e-07
3.3814247e-06 8.5491e-06 -1.6928923e-09 8.21371e-07 0.0 6.4678045e-07 -2.4073407e-07 2.2270715e-06
1.4129871e-06 2.5965779e-05 1.14719874e-07 -1.2644307e-06 -1.8725407e-07 -6.096731e-07 3.0227312e-07 1.8313749e-07
2.657751e-06 -2.387738e-06 2.038657e-06 -4.102419e-07 -8.408301e-09 -7.985835e-07 2.8927236e-06 1.731504e-06

mlp_extractor.policy_net.2.weight f4 [64, 64]
00000000: 4dc6 64bc 953b 16bd 93b6 37be 2d00 5e3e
00000010: c355 75be 3f7a eebc 5eca 5dbd 9f14 7cbe
00000020: 7110 0d3d ccda 943e d91b 8b3d dfc7 e8bd
00000030: 90fa 84bd b3d9 1abe b56e 613d 21e3 9bbd
00000040: 2f87 4fbe cf3d 9f3b 9fbd 64be 9f5d 453e
00000050: 8d2c d3bd 3142 9abe 3170 a73e 4786 e03b
00000060: c272 82be 11b1 ecbd deb5 fbbd a370 233c
00000070: a691 8bbd 3a67 19bd 8ca1 e5be b1b3 82bd
00000080: c166 9b3d a45f 163d a4d9 3c3e ece0 5f3e
00000090: f80e 953d fb32 8fbe 3f03 183e 8455 efbc
000000a0: eb41 333e d369 f83d a99e 7cbd 3333 d0bd
000000b0: d331 9f3e af9e 2bbe 716a bebd 1136 80be
000000c0: 9029 6a3e d8d0 403e 71ab a83c 4353 753e
000000d0: ff71 e43d 3bad 163e a5f2 7f3d 3435 74bd
000000e0: db74 e7be ee12 c0bd 3a13 1f3d 380a 23be
000000f0: f336 eb3d ac8f 073d 54dc b03e 562b 98bd
00000100: 979e b2bb 8d40 6f3e 4c18 9d3e 5479 793e
00000110: 5081 b03e 2ea2 973e e85a 093e a300 2d3e
00000120: 7591 30bd 5d98 19be e187 073e fa99 b03d
00000130: 8d16 7e3e 2932 02be d736 37be 2848 223d
00000140: 76be 03be 5621 d6be 4bf9 383e 084d 543e
00000150: c7ef 523c 84d3 3c3e af4f 233e d44a 15be
00000160: 6b12 87be c64b aebe 17f2 62bc 9c4a cc3d
00000170: aabc 0cbd d35a be3e 0011 1bbd ae5c d8bd
00000180: 8e82 ce3d 6eab d23c 5d2c 033d 41bd 08be
00000190: 5994 52be 5f82 24be 57e2 a83e a0fe 7e3e
000001a0: 2187 9a3d 9801 17bc deda 73bd 75a3 c6bd
000001b0: 23b1 b1be 7fcc 3d3c 62fd 4f3e 7ff4 113e
000001c0: 3fba 64bd b31f fcbd ea45 17bc 0cdf 683e
000001d0: 4272 143e 1053 ad3d 1046 12be 52ad 02bd
000001e0: 75aa 2cbe 4835 ae3d 5ba5 f0bd 704b 233d
000001f0: c25d d83d d060 c33d cdcb fc3d ba3f a93d
00000200: 0abc 76be 76c9 ba3d 1f87 a0bd cc3c 643e
00000210: f8f1 8c3e de31 07bd fce0 7d3d e67f 07be
00000220: 86fb cd3e 7d2e 1fbc de2c 093e d085 8bbc
00000230: eb3a b9bc 51b6 303d af23 d93c dbb9 93bd
00000240: 3934 1dbe 5425 17be 33a8 34bd 4483 27be
00000250: d3ba 323d 6c3a fa3c 1b60 bcbd b073 60be
00000260: bd30 053e 0d5b 113e dbc6 19bd 6509 63bd
00000270: 9790 973e 8ff8 f7bc 2a36 bcbb 7122 feba
00000280: 6131 a23d a777 033e ed9e 7bbe c7ae ba39
00000290: 5c15 2cbd 7b45 ea3d 1460 95bc 5368 8dbd
000002a0: 1f6b 6fbd 2ccf 9f3e b416 bfbe 89b7 c63e
000002b0: b205 b53d bd43 7fbe e9ae 6b3e 03db 31be
000002c0: 1dfb ce3d e45c c0be 925c e53d 044f 4bbd
000002d0: f501 bcbd 4125 dabd 03ca 1c3d 6c70 0cbf
000002e0: b09b c4bd 3682 11be 6399 db3d 5bbf 05bc
000002f0: 7b42 a93d 33e7 6c3e a679 d6bd eb4f 91be
00000300: e6ff fb3d ddfc 903e b79e 4e3e 95b7 8cbd
00000310: a930 e2bc 1139 163f 334f aa3d 73fe a3bd
00000320: 6295 103d 57a5 183e 3fc7 66be 4781 f7bb
00000330: 36f3 92be 7be3 ddbd 6392 383e fd3d a33d
00000340: 7c97 853e 039b a53d 0ddd 25be 7564 8fbb
00000350: abd0 e9bd 5e7b 443c 1910 1ebe f888 633e
00000360: cf0d 983c d950 253e 6df5 213d 4465 693d
00000370: c726 02bf ed8b a3bc cf2c 51be 554d 32be
00000380: fe34 48be 97cb 26bc e2f3 ba3c 4a0e 613e
00000390: 1926 67be 3b15 ae3d 51d7 923c 0276 9f3d
000003a0: c264 6fbe d905 8f3e 80b0 b7be 58f1 033d
000003b0: 38b5 5b3b af1a 0c3e d549 5ebd ac75 033d
000003c0: 4e41 afbb 58c0 94bd 4070 13be 3b85 88bc
000003d0: e6d7 18be aaf9 febd 2886 9abe f2e5 b43c
000003e0: a4d3 163d 4b06 263c d02c 4b3e 1f3c af3d
000003f0: f081 1f3d 3c0e 983e da58 ef3d d6ef 033c
-0.013963294 -0.036677916 -0.1794074 0.21679755 -0.23958497 -0.029111026 -0.05414807 -0.24617241
0.034439508 0.2907318 0.06792421 -0.113662474 -0.064931035 -0.15122108 0.05503722 -0.07611681
-0.20266412 0.004859663 -0.2233796 0.19273995 -0.10311232 -0.30128625 0.32702783 0.0068519446
-0.25478178 -0.1155721 -0.12290548 0.009975585 -0.068148896 -0.03745196 -0.44849813 -0.0638193
0.07587958 0.036712304 0.18442398 0.21863145 0.07278246 -0.27968583 0.14844988 -0.029215582
0.17505614 0.12129559 -0.061674748 -0.101660155 0.310927 -0.16759752 -0.09297646 -0.2504125
0.22867417 0.18829668 0.020589562 0.23957543 0.111545555 0.1471452 0.062487263 -0.05962105
-0.4520634 -0.093786106 0.038836695 -0.15921867 0.1148509 0.033096 0.34543097 -0.07430141
-0.0054510343 0.23364468 0.306826 0.2436269 0.34473658 0.2961592 0.13413584 0.16894774
-0.04310747 -0.14999528 0.13235427 0.08623119 0.2481329 -0.12714447 -0.17892013 0.039619595
-0.12865624 -0.41822308 0.18063848 0.2073251 0.01287455 0.18440062 0.15948366 -0.14579326
-0.2638124 -0.34042186 -0.013851664 0.09975168 -0.03435961 0.37178668 -0.03785801 -0.10564552
0.10083495 0.02571651 0.03202473 -0.13353445 -0.20564403 -0.16065358 0.32985184 0.24901819
0.07545305 -0.009216689 -0.0595349 -0.09699146 -0.34705457 0.0115844 0.20311502 0.14253424
-0.05584168 -0.12310734 -0.009232977 0.22741336 0.14496711 0.084631085 -0.14284539 -0.031903572
-0.16861899 0.08506256 -0.11750289 0.039866865 0.10564758 0.0953995 0.123435594 0.08264108
-0.24095169 0.09120457 -0.07838272 0.22288817 0.27528358 -0.03300654 0.06198214 -0.13232383
0.4023096 -0.0097156735 0.13396022 -0.01703158 -0.022611102 0.04314262 0.026506273 -0.072131835
-0.15351953 -0.14760333 -0.04410572 -0.16358668 0.0436352 0.030545436 -0.09198018 -0.21919131
0.13006873 0.1419489 -0.03754316 -0.05542888 0.296025 -0.03026989 -0.0057437615 -0.0019388926
0.079195745 0.12838612 -0.24572344 0.00035606904 -0.042012557 0.114390336 -0.01823429 -0.06904664
-0.058451768 0.31212747 -0.3732201 0.388119 0.08838977 -0.24928184 0.23015942 -0.17368703
0.1010649 -0.3757087 0.11199297 -0.049635902 -0.09180061 -0.10651637 0.03827859 -0.5485904
-0.096000075 -0.14209828 0.107226156 -0.0081632985 0.08264633 0.2313507 -0.10472421 -0.28381285
0.12304668 0.2831792 0.20177732 -0.06870953 -0.027611094 0.58680826 0.08315887 -0.08007517
0.035298713 0.14906822 -0.22536944 -0.007553253 -0.2870118 -0.10834404 0.18024592 0.07970808
0.26092136 0.08086207 -0.16197605 -0.004375989 -0.114167534 0.011992304 -0.15435828 0.22220218
0.018561272 0.16144122 0.039540697 0.05698134 -0.5084042 -0.019964183 -0.2042725 -0.17412312
-0.19551465 -0.010180376 0.02282137 0.21978107 -0.22573127 0.08500143 0.017924936 0.0778618
-0.2337828 0.2793415 -0.35876846 0.032212585 0.0033524763 0.13682054 -0.05426963 0.032094643
-0.005348361 -0.07263249 -0.14398289 -0.016665092 -0.14926109 -0.124499634 -0.30180478 0.022082303
0.03682293 0.010133336 0.19841313 0.08556389 0.038942277 0.2969836 0.11686869 0.008052787

mlp_extractor.policy_net.2.bias f4 [64]
00000000: 1a11 a5b8 c589 08b8 5e48 a4b9 73fc 1db9
00000010: 81b1 1b38 e886 d9b8 41e1 3338 5034 bdb8
00000020: 7ea9 4638 403f ab38 561a aeb8 0b27 2638
00000030: ef54 1138 ce79 8db7 d3a3 cb38 d5ee 4439
00000040: 7733 3537 4821 02b8 70f9 aa37 d6d6 5ab8
00000050: d4c2 0839 b509 aab7 7393 3a39 13f4 da37
00000060: 669d e2b7 67a4 7338 2f2e 0bb9 d9bc 3239
00000070: b1c9 10b8 f7ea e238 30bd a538 6ff3 32b8
00000080: 1d28 8db9 7fa4 a937 524b 9d36 08cc b338
00000090: 4d5b 8d38 729d aab8 064f b137 f2b2 a838
000000a0: 4e02 96b8 467d 68b9 993e 19b9 13eb 1ab8
000000b0: d397 9938 fb97 0eb9 9f28 4fb7 ceda a239
000000c0: d24d 08b9 8b6c d6b7 e3c2 9fb8 dbde f338
000000d0: 39e4 8236 8021 07b7 437c 80b7 18b9 4ab8
000000e0: 2933 9e37 8a28 c737 73cb ae38 4d94 c837
000000f0: 3909 a7b8 fd12 a836 f755 2639 e751 00b9
-7.8709985e-05 -3.2553235e-05 -0.00031334435 -0.00015066731 3.7120193e-05 -0.000103724946 4.288671e-05 -9.021966e-05
4.736473e-05 8.1656966e-05 -8.301872e-05 3.9613846e-05 3.4649795e-05 -1.686523e-05 9.710309e-05 0.00018780988
1.0800423e-05 -3.102541e-05 2.0381733e-05 -5.217533e-05 0.0001304255 -2.02701e-05 0.00017793271 2.6101281e-05
-2.7014594e-05 5.8088826e-05 -0.00013273278 0.00017045754 -3.4520115e-05 0.000108202854 7.903052e-05 -4.2665222e-05
-0.00026923502 2.022297e-05 4.687733e-06 8.573389e-05 6.74041e-05 -8.135558e-05 2.1136842e-05 8.0441954e-05
-7.152987e-05 -0.00022171912 -0.00014614536 -3.693539e-05 7.323888e-05 -0.00013598792 -1.2347619e-05 0.0003106207
-0.00012998961 -2.5561332e-05 -7.618011e-05 0.00011628653 3.9008705e-06 -8.054427e-06 -1.5316653e-05 -4.8332935e-05
1.8858891e-05 2.3741526e-05 8.334862e-05 2.3910916e-05 -7.9648984e-05 5.0090007e-06 0.00015863018 -0.00012237542

mlp_extractor.value_net.0.weight f4 [64, 10]
00000000: 3896 4ebe 13c7 aa3d d6de 993c 98a3 3d3e
00000010: f137 2c3e 94e8 1b3c fd9d e8be 90ed 0fbe
00000020: a672 7fbe aede af3d 9091 753d 6a73 ed3d
00000030: d777 a03d b5f2 c6bd 40c8 36be 3173 7bbe
00000040: c479 1b3d 3947 dbbd 55de debd ce29 bfbd
00000050: 9b90 4dbd bdea 883e aef4 0e3d 8bc6 60be
00000060: d479 80bd 82ee cabe 3fe0 33bd d5c0 8f3e
00000070: 2a40 9e3e f303 f03d ad9e 4bbe d741 b0bb
00000080: 63f2 09be 8e05 a93e 0641 793e 0d05 47bd
00000090: 59a0 03be 28a7 963e 16cd 59be c8b3 bcbd
000000a0: 54c5 cc3d 1969 3fbe 0f3c 7ebd 835b 7d3e
000000b0: bc27 94bd 463a 04be d439 253e 0b75 62be
000000c0: 9190 d43d 1d7b afbd 7933 a5be bf42 febd
000000d0: b913 8e3d f739 32be 7ea7 813e 2e5b fa3d
000000e0: 1431 303e f376 ecbb c1d9 6d3e 8013 e03d
000000f0: e042 d5bd 3dcc cabc 2144 2bbd 1cec e2bc
00000100: e981 ea3d d053 6ebe 9857 a03d 03ad 393d
00000110: 3e2e 35be 93dc 4bbd 18e3 d3bd b827 ffbd
00000120: 25b3 ca3d 8ba5 e03d 28f1 623e 7e8d c2be
00000130: 40e0 dabe 0cb1 bf3d 6dbd ad3a c719 9cbe
00000140: 7d97 a4bc 8af0 f7be 7727 323d a1df 28bd
00000150: f3b4 ecbb 55d6 7b3e 9f26 f53e afee 883d
00000160: ce4d 943c 675f fb3d 3c40 a13c 9ac6 42bd
00000170: 96f9 7f3c 58f1 f4bd 52ef 95bd 1eb4 3a3e
00000180: bc59 223e f2d1 db3e e040 f63d d67c 28be
00000190: f65a d33d d156 3bbd 0c76 15be 5be4 04be
000001a0: 1405 343e 4fcc c4bc 66de 3cbe 8bf7 333e
000001b0: 686c 013f c957 e13d 53cf 33be a0df 613c
000001c0: 02bc aebd 8263 c8be f7b4 20be a368 b13e
000001d0: c468 2dbe c5af b63c df8a 96be 046f 62be
000001e0: 44d6 843e 1317 2e3d 2ae9 0d3e 9b02 493e
000001f0: 0ab1 ac3c d24c fcbd 2356 bc3d 491e 15bd
00000200: 46c1 6f3d 66a9 073c 319e 193e 13e3 5b3d
00000210: 2321 b8bd 39f6 b93d 46f6 a33d 61dc 513d
00000220: 2d3d b6bc 450a 463d d8e2 4c3c 77bc 1e3c
00000230: dc32 26be 3712 2dbe 804c 33be 2f18 cc3d
00000240: 4517 56be 8f76 8b3d 4934 f9bd ffc7 00be
00000250: 0960 173e 536c 25be 4566 063d 901e bcbe
00000260: fc51 52bd ceba ccbe d811 d3bd 0997 353e
00000270: 7d33 c2be 60aa 1abc 5b9a 6dbd 1a47 083d
00000280: aa0f edbe e08c af3c e36b 0cbe b323 2fbc
00000290: 18c4 47bd c684 5bbe b7df 733e 643a 9a3e
000002a0: d71c bd3b e62c c53d a7b8 0cbe 03a0 0cbe
000002b0: f444 2dbe 05e6 a3be 8049 4cbe e854 2bbe
000002c0: 83c9 b93b 2310 b03c a06a 46bc d9ee 423d
000002d0: 1f58 3a3e 42fe b0be 1c3e 963c 2900 b93d
000002e0: 2cca a13d a767 f1bd 2312 193e c86d d9bd
000002f0: cff3 6d3d 8d65 6c3d 3f84 383b bb16 16be
00000300: fbad 433e 1181 003e 9d94 c33d 89e6 a1bc
00000310: 6c00 e3bd 43b0 7d3e afc1 01be 26f6 a43e
00000320: d00b 923e 6283 383e 2033 bebe be65 833c
00000330: 5426 5f3e f49c 3c3e d48c 9d3d b25f a6be
00000340: 8616 42be cc82 403d 614a c03e 7756 e83b
00000350: 4e63 203e 07bd 47bd a705 d0be 1abf dbbd
00000360: 4b81 2cbd 7539 c63e e373 f9bd dd44 abbc
00000370: b86e 1e3d 3338 a23d 2bad 8e3e 27b2 44be
00000380: 4d76 22bd 0e6d 763e a650 ca3d 7046 1bbd
00000390: 73b7 4d3e 2afd 03bf 444d 793e a51e 64be
000003a0: bd26 a2bd 4568 5f3d 9c5e f3bd fa11 41be
000003b0: f1c6 52be 15e3 983d 3652 c8bd bed5 9ebb
000003c0: d848 b0be 981b 26be 80a5 043e 4c5e 3d3e
000003d0: 0f4f e33c 2b3d 86bc a674 c2bd 6470 acbd
000003e0: d4c0 9a3d 4d52 5bbd e533 973e 7e8b a5bd
000003f0: c442 e0be 32cc 3e3d 6dc7 91bd d1d5 e23c
-0.20174491 0.08338752 0.018783014 0.18519437 0.16818215 0.0095159 -0.45433035 -0.14055467
-0.24946079 0.08587395 0.059953272 0.11594279 0.07835358 -0.097142614 -0.17849827 -0.24555661
0.03795792 -0.10706944 -0.1088225 -0.093341455 -0.050186735 0.2674159 0.034901313 -0.21950738
-0.06273237 -0.39635092 -0.04391503 0.28076807 0.30908328 0.11719503 -0.19884749 -0.0053789425
-0.1347137 0.3301205 0.2434121 -0.0485888 -0.12854137 0.29424405 -0.2126964 -0.09213978
0.09998575 -0.18692435 -0.062068995 0.2474194 -0.07234141 -0.12912855 0.16135341 -0.22114961
0.10379136 -0.08568404 -0.32265833 -0.124150746 0.069373555 -0.17404924 0.253231 0.122244224
0.17206222 -0.0072163283 0.23227598 0.10941219 -0.10413146 -0.024755592 -0.04181302 -0.027700476
0.1145056 -0.2327416 0.07829207 0.045331012 -0.17693421 -0.049770903 -0.10346049 -0.124587476
0.0989745 0.10969075 0.22162306 -0.37998575 -0.42749214 0.09359941 0.0013255306 -0.30488417
-0.020091766 -0.48425704 0.043494668 -0.041228894 -0.0072237193 0.2459348 0.47881028 0.0668615
0.018103506 0.12274056 0.01968395 -0.047552682 0.015623471 -0.11960095 -0.07321037 0.18232772
0.15854543 0.42933613 0.12024093 -0.16453871 0.10320084 -0.04573709 -0.14595813 -0.12977736
0.17580062 -0.024023203 -0.18444213 0.17574899 0.5055604 0.11003072 -0.17559557 0.0137862265
-0.085319534 -0.39138418 -0.15694033 0.34650144 -0.16934496 0.02230061 -0.29402825 -0.22112662
0.25944722 0.042502474 0.13858476 0.196299 0.021080513 -0.1231934 0.09196117 -0.036405835
0.05853393 0.008280134 0.15001751 0.05368335 -0.08990695 0.09080166 0.08005957 0.05123556
-0.022245968 0.048349638 0.012505256 0.009688488 -0.16230339 -0.1690148 -0.17509651 0.0996555
-0.20907314 0.06809723 -0.12168176 -0.12576292 0.14782728 -0.16154604 0.032812376 -0.36742067
-0.051347718 -0.3998627 -0.10306138 0.17733397 -0.37929907 -0.009440035 -0.058008533 0.033270933
-0.46301013 0.02142948 -0.1371303 -0.010689664 -0.048770994 -0.21437368 0.23815809 0.30122674
0.0057712602 0.09627704 -0.13742314 -0.13732915 -0.16920835 -0.32011428 -0.19949913 -0.16731608
0.005669774 0.02149207 -0.012110382 0.047591064 0.18197678 -0.34568983 0.018340163 0.09033234
0.07899889 -0.11787348 0.14948325 -0.10616642 0.058093842 0.057714034 0.0028154997 -0.14657108
0.19109337 0.12549235 0.0954983 -0.019763248 -0.11084065 0.2477427 -0.1267154 0.32219046
0.28524637 0.18018869 -0.3714838 0.016039725 0.21791965 0.18419248 0.076928765 -0.32494885
-0.18953905 0.046999738 0.37556747 0.0070903855 0.15662882 -0.048764255 -0.40629312 -0.10729809
-0.04211549 0.3871571 -0.12180307 -0.02090686 0.03867981 0.079208754 0.27866492 -0.19208585
-0.0396636 0.24065039 0.09878664 -0.03790897 0.20089512 -0.5155817 0.24345881 -0.22277315
-0.07917545 0.0545428 -0.1188328 -0.18854514 -0.20583703 0.074651875 -0.097813055 -0.0048472574
-0.34430575 -0.16221464 0.12953758 0.18493003 0.027747659 -0.016386589 -0.09494905 -0.08419874
0.0755631 -0.053545285 0.2953178 -0.08083247 -0.43800938 0.046581455 -0.071181156 0.027689846

mlp_extractor.value_net.0.bias f4 [64]
00000000: b410 0abc 94fb 32ba b9fe ab3b 35ab 97ba
00000010: 8fc5 4ab4 2c65 b3b7 2d0e 863b 8ebb 4cbb
00000020: 5f1b 1736 237a e1ba c4be 043c 0703 363a
00000030: 8e20 703b 6eea bcbb 3c1a 7fba 9377 be3b
00000040: 0000 0000 d656 adbb 2414 e9bc 5462 3d3b
00000050: ae2e 15bc 8d68 e0ba 9daa b033 36af 2d31
00000060: ce91 a33c 2a0e 893b ccda 77bb d4f1 9cba
00000070: f553 4b3b 52e8 493c bf15 9fbb 5de8 b3bc
00000080: e4cc 803b 338d 543b b7ca 33bc 50d8 13bc
00000090: 7a97 fe3a 8a77 c8ba 2bf9 21bc 0000 0000
000000a0: a0c0 1ebc a69d 7a3a 0887 b4bc 6053 2abb
000000b0: 1549 2d3c 5452 1cbc 5b69 79bb 9758 8fb8
000000c0: 2bd5 b53b ccc6 9abb ce4c bdbb 9fea 9fba
000000d0: 796a c63a 1396 1d3a 19cc 1f3c 040d 11bc
000000e0: 7ba4 c1bb 4a9e 1fbb acbb c4bc 7953 453b
000000f0: 89b1 e93b bf64 06ba ce50 2839 5903 823c
-0.008426834 -0.0006827649 0.005248871 -0.0011571409 -1.8884587e-07 -2.1385575e-05 0.0040910454 -0.003123972
2.2516685e-06 -0.0017202537 0.008102123 0.00069432 0.0036640498 -0.005765251 -0.0009731387 0.005812594
0.0 -0.0052898927 -0.028451987 0.002889772 -0.009105368 -0.0017121002 8.226673e-08 2.527441e-09
0.019966986 0.0041825967 -0.0037819622 -0.0011973926 0.0031025384 0.012323456 -0.0048548873 -0.021961385
0.003930675 0.0032432794 -0.010973624 -0.009023741 0.0019423806 -0.0015294414 -0.009886066 0.0
-0.00968948 0.00095602346 -0.022037044 -0.0025989637 0.010576506 -0.009541113 -0.0038057182 -6.8352725e-05
0.0055490932 -0.0047234055 -0.005776978 -0.001220066 0.0015137932 0.00060114375 0.0097532505 -0.008853201
-0.0059095 -0.0024355822 -0.02401527 0.0030109568 0.0071317595 -0.00051267067 0.0001605183 0.015870737

mlp_extractor.value_net.2.weight f4 [64, 64]
00000000: c4b3 1e3e 2d9c 1cbe a169 223d 3734 963e
00000010: 1c6f 7abe 3ef5 bd3a 7f6a 0e3e f29c a7bd
00000020: 5082 7f3d 1abe 083e 5ba7 4c3e d2b9 48be
00000030: a744 09be 1ff0 81be 52d6 313e 351e b73d
00000040: 2840 7b3e 3b7f 7f3c bf13 b9bc fcbe 9dbe
00000050: 5049 83bd 19d5 223d 9738 ccbe 3339 853e
00000060: 0d54 31ba c89c abbe 6bf3 583e 43bb 873e
00000070: 8814 de3d c79f 1f3b 9c74 0fbc c724 7ebe
00000080: 9b80 ddbd d894 4bbe ca86 c1be 6a78 f03d
00000090: 2f9c 5a3d 447a 823e cccd dd3d 3598 27be
000000a0: d69d 35bd 5687 723b 7119 053e 85bc a83e
000000b0: 9cff 5e3e 6a0f 163e 293f 963c 5032 66be
000000c0: a826 1fbe bc1f 2b3e 7a03 b83d 98d2 053e
000000d0: 77dc b53d abf6 60bd 1de3 8bbd c991 a33d
000000e0: 37ab 053e 50f0 3c3e 2fa5 653c 4208 c23d
000000f0: 1e6e 133e af98 d9bd 9053 783e 2410 fbbd
00000100: 496e d2bc eb21 c0bc 5199 6a3e 45b4 8dbe
00000110: fa5d e6be 0f41 6fbe 71f7 94be 08b8 5c3e
00000120: ab19 533e 70ad 0b3e 6106 b93c 50e5 12be
00000130: a18b c13c 6c8c 54bd e50c fcbd 94f5 abbe
00000140: c2f0 5abe c670 f1bd facd 9ebe 0e66 703e
00000150: b441 8339 7eaa b73d abc5 d0bd d46a 843e
00000160: bdcb d139 b41d 003e 4fb9 3e3d 8531 4b3e
00000170: 0a16 32be 2c91 1e3e c51f 2f3e 9847 8cbd
00000180: 8480 bdbd 253d 053d edb1 7bbe 04a9 8d3d
00000190: ac17 a2be c97d 3dbd 28be 683d 0762 0e3d
000001a0: c644 22bd c7da f8bc 5a0a e7bd 22da 14bd
000001b0: 0c4e aabe 0bbd 4dbe b1c9 8cbe 2cfd 5cbe
000001c0: eb04 903e c728 b3be a34d 833d 70e3 a13d
000001d0: f387 5a3d a1b7 cfbd 9154 883e 4687 40bd
000001e0: ddb0 97bc d309 863d 3768 3fbc d1df 7e3d
000001f0: 3f62 183e 292d 95be 75b6 e1bc beb8 7f3d
00000200: 8074 cb3d efaf ccbd 6385 46bd cd6e 663e
00000210: 978a ea3c 7028 413e 46da 02be 781e 273e
00000220: 269e b83d 0c4d 933e ed4a 5fbe fd37 333e
00000230: d9bc 68be e625 af3d 99a3 06be 8da0 c6be
00000240: 3a38 af3d 012d a4be cf57 f9bd f7a4 b03d
00000250: 2ce0 49bd f0d6 46bc f3e4 48bb e0be dd3d
00000260: ec03 383e e7e4 0cbe cf1f b1bd 96ce 2dbd
00000270: 48a3 923e c25d 24be 6f28 403d c39a 27be
00000280: 62dd ed3d 47b5 24be 1a08 203e 9ff9 363e
00000290: c431 533e afa3 d13c 6a41 8f3d 1f6b 733e
000002a0: 3336 253e 07a6 38be 45cb 5dbd c2e7 25be
000002b0: f4d6 fbbc c616 b33e 0754 00be 246f 24bc
000002c0: 82be a83e 64d8 263e 8dcf 5abd cd7e 003e
000002d0: 08ab ab3e 46e8 d4bd 22e6 4fbe 075b b93e
000002e0: 05b9 c13d b84e f0bd e87f 77be 8a9e 8d3e
000002f0: 7e08 32be b725 323d 341e 4bbd 7d4b 2c3e
00000300: fbda f1bc 06d0 5e3d b10c 00bd 2218 ab3e
00000310: 4df2 183e 436b e5bd 53c7 4ebc 612b 49be
00000320: d135 eebd 8d42 063e 2056 97be 917f 19be
00000330: 3fcf 32be aa15 4dbe 76ef 5ebe 17d2 10bd
00000340: 0b7c f43d cce0 6bbe c22f 41be 979b f9bd
00000350: 88fe 4f3d 8518 cf3b 0b08 5ebe 003c 21be
00000360: 342c a9be e0ba 79bd ca8e febc 48ff a5be
00000370: 725f 78be dd8d 69be 563e e4bc cb40 b43c
00000380: 51da 89be f3ae 0eba 0939 8fbd b7b8 0e3d
00000390: ccc7 a3bd bc4d ee3e bd2e 483d ad8b 82be
000003a0: c4a7 15be 6e43 293e 5eac 9e3d 484e 93be
000003b0: 8e6b f5bd d423 cebd 76fa c73d 3568 17bc
000003c0: 9bb9 d7bc f7eb 803d e43c b53d 89a4 113e
000003d0: bd4b 1f3d ceea 813e 360d 123e 1add 89be
000003e0: be97 b83c e0c6 363e 3e0f 42be 69be 7dbd
000003f0: f2f1 f7bd 1aa0 c1bd 294c d8be 04c2 2e3e
0.15498263 -0.15293951 0.039651517 0.29336712 -0.24456447 0.0014492644 0.13907813 -0.08184232
0.062380135 0.13353768 0.19985716 -0.19602135 -0.13405095 -0.2537851 0.17366913 0.089413084
0.24536192 0.015594299 -0.022592423 -0.30809772 -0.064104676 0.039754007 -0.39886925 0.26020202
-0.00067645387 -0.33518052 0.21186607 0.26510057 0.1084376 0.002435671 -0.008755829 -0.24818717
-0.10815545 -0.19880998 -0.37798148 0.11741717 0.053371605 0.25483906 0.10830268 -0.16366656
-0.044339977 0.0037006936 0.12997986 0.3295633 0.21777195 0.14654317 0.018340664 -0.2248013
-0.1554209 0.16711324 0.08985038 0.13068616 0.08879941 -0.05492274 -0.06830428 0.07986791
0.13053595 0.18451047 0.014016434 0.09474231 0.14397475 -0.10624825 0.24250627 -0.12258938
-0.025687354 -0.023453673 0.22910048 -0.27676597 -0.44993573 -0.23364662 -0.29095033 0.21554577
0.2061526 0.1364038 0.02258605 -0.14345288 0.02362615 -0.05189173 -0.12307147 -0.335858
-0.21380904 -0.11789088 -0.31016523 0.23476431 0.0002503522 0.08968066 -0.10193952 0.25862753
0.00040015383 0.12511331 0.046563443 0.19843109 -0.1739122 0.15485066 0.17101963 -0.06849593
-0.09253028 0.032529015 -0.24579592 0.06917003 -0.31658685 -0.046262536 0.056821972 0.034761455
-0.03961637 -0.030377759 -0.11281271 -0.03634084 -0.3326267 -0.20091645 -0.27497628 -0.21580952
0.28128752 -0.34992048 0.064112924 0.079047084 0.053352308 -0.10142446 0.2662702 -0.047004007
-0.018516952 0.065448426 -0.011682562 0.062225167 0.14881228 -0.29136017 -0.027552823 0.062432043
0.0993433 -0.09994494 -0.04846705 0.22503205 0.028630538 0.18863082 -0.12778577 0.16320217
0.090145394 0.2876972 -0.21805926 0.17501827 -0.2272829 0.085521504 -0.13148345 -0.38794366
0.08555646 -0.32065585 -0.12174951 0.086252145 -0.049286053 -0.012136206 -0.0030654042 0.10827422
0.17970246 -0.13759194 -0.08648645 -0.042433344 0.286402 -0.16051391 0.04691356 -0.1636763
0.11614491 -0.16084777 0.1562809 0.1786866 0.20624453 0.025590746 0.069948986 0.23771332
0.16133957 -0.18032084 -0.05414893 -0.1620169 -0.030742146 0.34978312 -0.12532054 -0.010036264
0.32957846 0.16293484 -0.053420592 0.1254837 0.33528924 -0.10395865 -0.20302632 0.3620226
0.09459118 -0.117337644 -0.24169886 0.27660018 -0.17386052 0.043493 -0.04958935 0.16825671
-0.029523363 0.054397605 -0.031262103 0.3341685 0.1493618 -0.11202099 -0.012620765 -0.19645454
-0.116313584 0.13111325 -0.29557896 -0.14990069 -0.1746187 -0.20027795 -0.21771035 -0.035356607
0.11937722 -0.23034972 -0.18865874 -0.121878795 0.05077985 0.0063200616 -0.21682756 -0.15745544
-0.33041537 -0.060969234 -0.031073947 -0.32421327 -0.2425516 -0.22808023 -0.027861755 0.022003552
-0.26924375 -0.00054429396 -0.069933005 0.034844127 -0.079970926 0.46543682 0.048872698 -0.2549719
-0.14614779 0.16529629 0.0774772 -0.2877066 -0.11983405 -0.100654274 0.097645685 -0.0092411535
-0.02633362 0.06295007 0.088495046 0.14222921 0.03889059 0.25374454 0.14262852 -0.269265
0.022533294 0.17849302 -0.18951127 -0.061949167 -0.12106694 -0.09454365 -0.42245606 0.17066199

mlp_extractor.value_net.2.bias f4 [64]
00000000: 7f49 613c b498 003d 5dfe b0bc 4a87 0dbd
00000010: a4fc 9fbc 5b84 92bb d118 bf3b 306a b73c
00000020: 4b73 fdbc b7cb a73c 0f24 0b3d 49a2 a4bc
00000030: bc21 433d d859 203d fc47 5f3b affc 26bc
00000040: 44c5 163d 2164 523d 987f dfbc c209 a7bc
00000050: 814b 323d 4c8a 3bbd 145c 0e3d 18bb 17bd
00000060: 427e fdbb 318c 19bd 7626 c43c 08f3 7fbc
00000070: b80c e33c 3717 09bd b497 fa3c 9f7c 08bd
00000080: 8e45 583d e425 c8bc c0f0 e2bc 2280 fc3c
00000090: a1d7 c03b c910 fd3c 2609 9dbc cfb4 493c
000000a0: ed78 613d 136e 4cbc 7d83 833d c62f 41bd
000000b0: 13f7 13bd b0c1 37bd a88f 0abd fcb5 ab3c
000000c0: a6b6 f8bb 6fea 093c 5e7c 4c3d 5d2a ad3c
000000d0: 84d3 5b3d 1769 003d b6cc 1b3d 9b94 0b3d
000000e0: 3c56 643c 1e73 84bc d8ba f83c 278e 1a3d
000000f0: ee5f d73b 3bec 40bd 9f5e edbc 65da 4b3d
0.013750433 0.03139563 -0.021605665 -0.03455285 -0.019529648 -0.0044713444 0.005831816 0.022389501
-0.030938765 0.020482881 0.033969935 -0.020096915 0.047639593 0.03914818 0.0034070006 -0.01019208
0.03680922 0.05136502 -0.027282521 -0.020390395 0.043529037 -0.045786187 0.03475578 -0.03704366
-0.0077359984 -0.037487213 0.02394412 -0.015621908 0.027716026 -0.033469405 0.030589916 -0.033321973
0.052800708 -0.02443213 -0.02770269 0.030822817 0.00588508 0.030891793 -0.019169401 0.0123111745
0.055046964 -0.012477416 0.06421564 -0.0471647 -0.0361243 -0.04486245 -0.033828408 0.0209608
-0.0075901328 0.00841771 0.049923293 0.021138364 0.053668514 0.03135022 0.038037024 0.034077268
0.0139365755 -0.016168173 0.030362532 0.037733223 0.006572715 -0.047100287 -0.028975783 0.049768824

action_net.weight f4 [2, 64]
00000000: 3b33 46bb 6238 0e3a bb0a 65bc 744e c3bb
00000010: 4711 a53a 85a9 da3b 80e7 bb3b 920c 92ba
00000020: 56bc 533b 2a3c a23a 890a 0dbb ba53 c43a
00000030: b9a2 56bb bb03 593b dc77 c23b 7a8d 203c
00000040: 239c 213a ab37 c7bb 1ed2 f1b9 b757 c1ba
00000050: 6ecd 6d3b fd59 183a eeee ce3a ff8e 463b
00000060: 75e5 793b f3dd ec3a fa35 1b3b 4ef4 0bbc
00000070: 4b7a 063b 460e b83b 46b8 02bc 76e3 fd3a
00000080: f929 15bb 64cb 173b 7955 943a 8398 c13a
00000090: 1b52 d23b b46b a2bc 56e8 5a3c 38c2 c33b
000000a0: 7274 e039 1d89 1dbb cd01 32bc dbfe 1eb9
000000b0: 5155 833b c9eb 09bb b404 6a3b f410 263c
000000c0: 2929 c23a 2fec 183b 5317 0d3b c1a3 65ba
000000d0: 791f c9ba edf8 68bb c7d1 1dbb cdcf 8d3b
000000e0: 02f6 e5ba a1c5 ef3a 5d96 9c3b 5d2b 583b
000000f0: 7d7c 95bb 96cd 83bb b9a1 333b 406a 43bb
00000100: 972d febb 6f57 0b3b e53f 38bc f14b debb
00000110: 1f64 8c3b 0d8a c5bb 5530 283a d1f1 c23b
00000120: ae5c 6fbb c613 10bc 80a2 d0bb fa67 89bb
00000130: 15ad 11bb 215f 9abb 6148 12bc b59f 6c3b
00000140: 8f29 8cbb 2550 fe3a 58fe 443c c93c c2bb
00000150: 7e56 ecbb de45 73bb 8e01 733b b3f4 34bb
00000160: fd2d febb f9b9 b0b9 a26c 64bb 7955 71bc
00000170: 1afd 8cba 291c a1bb ec9d 3c3b 27bc 5e3a
00000180: 1d05 833c 8edc 6c3b 79b0 083a f2ed bb3b
00000190: 6ca9 553a a35e 68bb 1fc2 57bb e448 9ebb
000001a0: 90fc aebb 63c1 dbbb 7fb0 22bc ad3d 5bbb
000001b0: 1f73 d4ba 6f20 40bc 9104 2bbc bbed 483c
000001c0: e4df 39bc 3c9e 0dbc 741f 8cbb c5af be3b
000001d0: 1970 bd3a e1ab 833a 09cd d1b9 d7d8 59bb
000001e0: f3a2 5b3b 9e5d 67bc e67c 6dba 4562 c6bb
000001f0: 10c7 a23b 6167 fc3b 90a4 383c 0a13 143c
-0.0030242938 0.0005425272 -0.013979609 -0.00596028 0.001259365 0.0066730403 0.005734384 -0.0011142662
0.0032308302 0.001237755 -0.0021521172 0.0014978566 -0.00327508 0.0033113796 0.0059346985 0.009799356
0.0006164929 -0.006079634 -0.00046123652 -0.0014750873 0.0036285776 0.0005811749 0.0015787759 0.0030297635
0.0038131152 0.0018071517 0.0023683296 -0.0085421335 0.002051967 0.005616936 -0.0079785045 0.0019370157
-0.0022760613 0.0023162002 0.0011316977 0.0014770183 0.006418479 -0.019826747 0.013361057 0.0059740804
0.00042811368 -0.0024038025 -0.010864687 -0.00015162995 0.0040079732 -0.002104508 0.003570837 0.010135878
0.0014813292 0.0023334136 0.0021528795 -0.0008760058 -0.0015344463 -0.0035548762 -0.0024081336 0.0043277503
-0.001754463 0.0018293151 0.004778667 0.003298483 -0.0045619593 -0.0040223105 0.0027409627 -0.0029817969
-0.0077568996 0.0021261831 -0.011245702 -0.0067839553 0.0042843963 -0.00602842 0.00064158934 0.005949237
-0.0036523747 -0.008793777 -0.0063670278 -0.004193303 -0.002222841 -0.0047110473 -0.008928389 0.0036105935
-0.004277415 0.0019402547 0.012023531 -0.0059276563 -0.007212459 -0.0037120502 0.0037079784 -0.0027611672
-0.007756947 -0.00033707896 -0.003485479 -0.014729851 -0.0010756582 -0.004916687 0.0028780652 0.0008496665
0.01599365 0.0036142203 0.0005214285 0.0057351524 0.0008150551 -0.0035456799 -0.0032922102 -0.0048304666
-0.0053401664 -0.006706403 -0.009929775 -0.003345351 -0.0016208625 -0.011726483 -0.0104381 0.012263711
-0.011344884 -0.008643683 -0.0042762104 0.005819293 0.0014452963 0.0010045731 -0.0004001635 -0.003324082
0.0033513873 -0.014121441 -0.0009059444 -0.006054195 0.0049675778 0.0077027534 0.0112697035 0.009037742

action_net.bias f4 [2]
00000000: 2742 0e3b 4a39 1d3c
0.002170691 0.009596178

value_net.weight f4 [1, 64]
00000000: f5c1 0d3e c0e9 443e bc95 2d3b d009 2cbe
00000010: e482 5bbe bb65 083d ef3e 883e b3c4 a53b
00000020: 3372 03be e019 453e 7e9e 9d3d 42d1 1bbe
00000030: 650e fa3d bccd 143e 9eef a93d 89f2 8fbd
00000040: d3f6 2b3d 9d64 a33d 045b 30be 3fee 73bd
00000050: 03f2 073e 438e 4abd d58f af3d f84a 1fbd
00000060: ff5f 133e edd0 48be f71c ec3d 8ca8 d1bd
00000070: 658c d63d f597 49be bdcb a53d 8c0e 12be
00000080: 5601 933d 6dd6 a7bd 3fc6 b3be 7576 dd3d
00000090: 0414 2abe 1771 003e a9f4 49bd c6e9 ee3d
000000a0: 0164 7e3d b177 18be 1dcc 8a3d 1dc8 92bd
000000b0: 046b 05be 7217 adbd d711 50be 3f40 343e
000000c0: 96ff e1bc 5ec8 9c3d 186d 193e ad4e c23d
000000d0: 28a9 df3d 399f df3d ee11 233e 5ebd d73d
000000e0: 419f 153e 0efe 9cbe 0023 b63d e3b9 283d
000000f0: 79ad d63e 7b4b 8fbe 830c 16be 2c1e 203e
0.1384352 0.19229794 0.0026486954 -0.16800618 -0.2143665 0.033300143 0.26610515 0.0050588488
-0.12836532 0.19248152 0.076962456 -0.15216544 0.12209777 0.14531606 0.082976565 -0.07028682
0.041983437 0.07978175 -0.1722222 -0.05955338 0.13275914 -0.049452078 0.08572356 -0.038889855
0.14392088 -0.19610949 0.11528962 -0.10237226 0.10475997 -0.19686873 0.080955006 -0.14263362
0.07177989 -0.08195195 -0.35112187 0.108136095 -0.16609198 0.1254314 -0.04930559 0.116656825
0.06210709 -0.14889409 0.06777213 -0.07167075 -0.13029104 -0.084517375 -0.20319305 0.17602633
-0.027587693 0.076554045 0.14983022 0.094876625 0.10920936 0.10919041 0.15924808 0.10534166
0.14611532 -0.30662578 0.088933945 0.0411929 0.41929224 -0.27987275 -0.1465321 0.1563651
